…
    return self._call_impl(*args, **kwargs)
  File "/home/saisai/miniconda3/envs/ad_env/lib/python3.10/site-packages/torch/nn/modules/module.py", line 1787, in _call_impl
    return forward_call(*args, **kwargs)
  File "/home/saisai/miniconda3/envs/ad_env/lib/python3.10/site-packages/transformers/utils/generic.py", line 876, in wrapper
    output = func(self, *args, **kwargs)
  File "/home/saisai/miniconda3/envs/ad_env/lib/python3.10/site-packages/transformers/models/whisper/modeling_whisper.py", line 935, in forward
    decoder_outputs = self.decoder(
TypeError: WhisperDecoder(
  (embed_tokens): Embedding(51865, 1024, padding_idx=50257)
  (embed_positions): WhisperPositionalEmbedding(448, 1024)
  (layers): ModuleList(
    (0-23): 24 x WhisperDecoderLayer(
      (self_attn): WhisperAttention(
        (k_proj): Linear(in_features=1024, out_features=1024, bias=False)
        (v_proj): lora.Linear(
          (base_layer): Linear(in_features=1024, out_features=1024, bias=True)
          (lora_dropout): ModuleDict(
            (default): Dropout(p=0.05, inplace=False)
          )
          (lora_A): ModuleDict(
            (default): Linear(in_features=1024, out_features=16, bias=False)
          )
          (lora_B): ModuleDict(
            (default): Linear(in_features=16, out_features=1024, bias=False)
          )
          (lora_embedding_A): ParameterDict()
          (lora_embedding_B): ParameterDict()
          (lora_magnitude_vector): ModuleDict()
        )
        (q_proj): lora.Linear(
          (base_layer): Linear(in_features=1024, out_features=1024, bias=True)
          (lora_dropout): ModuleDict(
            (default): Dropout(p=0.05, inplace=False)
          )
          (lora_A): ModuleDict(
            (default): Linear(in_features=1024, out_features=16, bias=False)
          )
          (lora_B): ModuleDict(
            (default): Linear(in_features=16, out_features=1024, bias=False)
          )
          (lora_embedding_A): ParameterDict()
          (lora_embedding_B): ParameterDict()
          (lora_magnitude_vector): ModuleDict()
        )
        (out_proj): Linear(in_features=1024, out_features=1024, bias=True)
      )
      (activation_fn): GELUActivation()
      (self_attn_layer_norm): LayerNorm((1024,), eps=1e-05, elementwise_affine=True)
      (encoder_attn): WhisperAttention(
        (k_proj): Linear(in_features=1024, out_features=1024, bias=False)
        (v_proj): lora.Linear(
          (base_layer): Linear(in_features=1024, out_features=1024, bias=True)
          (lora_dropout): ModuleDict(
            (default): Dropout(p=0.05, inplace=False)
          )
          (lora_A): ModuleDict(
            (default): Linear(in_features=1024, out_features=16, bias=False)
          )
          (lora_B): ModuleDict(
            (default): Linear(in_features=16, out_features=1024, bias=False)
          )
          (lora_embedding_A): ParameterDict()
          (lora_embedding_B): ParameterDict()
          (lora_magnitude_vector): ModuleDict()
        )
        (q_proj): lora.Linear(
          (base_layer): Linear(in_features=1024, out_features=1024, bias=True)
          (lora_dropout): ModuleDict(
            (default): Dropout(p=0.05, inplace=False)
          )
          (lora_A): ModuleDict(
            (default): Linear(in_features=1024, out_features=16, bias=False)
          )
          (lora_B): ModuleDict(
            (default): Linear(in_features=16, out_features=1024, bias=False)
          )
          (lora_embedding_A): ParameterDict()
          (lora_embedding_B): ParameterDict()
          (lora_magnitude_vector): ModuleDict()
        )
        (out_proj): Linear(in_features=1024, out_features=1024, bias=True)
      )
      (encoder_attn_layer_norm): LayerNorm((1024,), eps=1e-05, elementwise_affine=True)
      (fc1): Linear(in_features=1024, out_features=4096, bias=True)
      (fc2): Linear(in_features=4096, out_features=1024, bias=True)
      (final_layer_norm): LayerNorm((1024,), eps=1e-05, elementwise_affine=True)
    )
  )
  (layer_norm): LayerNorm((1024,), eps=1e-05, elementwise_affine=True)
) got multiple values for keyword argument 'input_ids'

2026-04-10 13:03:55,389 | ERROR | Traceback (most recent call last):
  File "/home/saisai/AD_predict/whisper_seniortalk_finetune/train_and_search.py", line 605, in main
    trainer.train(resume_from_checkpoint=last_checkpoint)
  File "/home/saisai/miniconda3/envs/ad_env/lib/python3.10/site-packages/transformers/trainer.py", line 1424, in train
…
